598_project_test/autoencoder.model (torch, 2432 bytes, 4 tensors)

encoder.weight f4 [6, 9]
0.231379 -0.15606315 -0.0020683466 0.5427772 -0.5373716 0.15546863 0.26935813 0.17467307
-0.6359939 -0.11308024 0.1205492 0.3239117 -0.24836051 -0.26153514 -0.058866818 0.59554726
0.37002793 -0.6054937 0.08783068 -0.15462844 -0.013107232 0.384768 0.25112438 -0.39921358
0.3109273 -0.6512593 0.04828188 0.009928392 0.041175194 0.17477354 -0.19051094 -0.44507673
0.35941136 0.20571087 -0.64102644 0.35102296 0.18738449 0.11524097 -0.6185329 0.0804392
-0.24854624 0.047254894 0.5340044 -0.3199097 0.15980397 0.73327994 -0.43327916 -0.05190019
-0.080222026 -0.46590975 0.22167185 0.64744955 -0.23585443 -0.20093894
00000000: 9eee 6c3e 05cf 1fbe 198d 07bb 72f3 0a3f
00000010: 2f91 09bf 2b33 1f3e 4fe9 893e 7fdd 323e
00000020: 7fd0 22bf 9d96 e7bd 80e2 f63d c1d7 a53e
00000030: 3852 7ebe efe7 85be 551e 71bd c975 183f
00000040: 4d74 bd3e a301 1bbf 92e0 b33d eb56 1ebe
00000050: b7bf 56bc 5000 c53e 6093 803e b965 ccbe
00000060: dd31 9f3e eeb8 26bf 38c3 453d b2aa 223c
00000070: 52a7 283d d6f7 323e 4d15 43be 19e1 e3be
00000080: c404 b83e dfa5 523e 4f1a 24bf 48b9 b33e
00000090: b8e1 3f3e 7503 ec3d 2c58 1ebf 4fbd a43d
000000a0: e882 7ebe 598e 413d 83b4 083f 34cb a3be
000000b0: a7a3 233e 3cb8 3b3f c4d6 ddbe 4b95 54bd
000000c0: 724b a4bd b98b eebe f2fd 623e 41bf 253f
000000d0: d383 71be f0c2 4dbe

encoder.bias f4 [6]
1.424253 1.0694041 0.8041086 0.7819072 0.9570973 1.1500688
00000000: ec4d b63f 3ce2 883f 10da 4d3f 122b 483f
00000010: 5404 753f 7435 933f

decoder.weight f4 [9, 6]
-0.18120496 -0.4130172 -0.11393775 -0.44098383 -0.19365956 0.91709846 0.06237475 0.3602467
-0.13918462 0.265066 0.57657015 -0.7176101 0.0102475975 0.33721775 0.3469197 0.5477145
-1.0655822 0.07554275 0.9536232 -0.42827854 0.40786797 0.015810097 0.036545496 -0.49371296
-0.58132654 0.013730068 0.39096686 -0.6041532 -0.15612006 0.16821818 0.27568218 -0.29305616
-0.59610057 0.44640306 -0.025228271 0.04432493 -0.2782403 0.72171044 0.32417363 -0.03403273
0.5062994 0.11934929 -0.030487664 0.1032454 -0.62338185 -0.63329303 0.089796335 0.09721271
-0.4045272 -0.35144994 -0.1638981 0.21577416 0.18728648 0.030076975
00000000: cb8d 39be fe76 d3be 3258 e9bd a2c8 e1be
00000010: b14e 46be f7c6 6a3f aa7c 7f3d 4172 b83e
00000020: 6a86 0ebe bbb6 873e 1a9a 133f 4cb5 37bf
00000030: 8ae5 273c cea7 ac3e 759f b13e 0437 0c3f
00000040: ff64 88bf 28b6 9a3d a620 743f 5347 dbbe
00000050: 12d4 d03e 2d84 813c bbb0 153d f2c7 fcbe
00000060: d1d1 14bf 14f4 603c cf2c c83e c9a9 1abf
00000070: f0dd 1fbe 6341 2c3e 3726 8d3e 750b 96be
00000080: 0c9a 18bf f18e e43e 85ab cebc 0f8e 353d
00000090: 8375 8ebe 04c2 383f 16fa a53e e765 0bbd
000000a0: d69c 013f 676d f43d 44c1 f9bc 5372 d33d
000000b0: f495 1fbf 7e1f 22bf 24e7 b73d 7517 c73d
000000c0: 301e cfbe 3ff1 b3be e7d4 27be e7f3 5c3e
000000d0: 07c8 3f3e fd63 f63c

decoder.bias f4 [9]
0.2651215 -0.29789317 -0.14794889 -0.70288974 0.92802054 0.027674874 -1.2296964 0.7343747
0.70544016
00000000: 01be 873e 7485 98be ea7f 17be 95f0 33bf
00000010: c192 6d3f 6bb6 e23c b166 9dbf fbff 3b3f
00000020: ba97 343f
